…
I0729 15:47:39.988961 23414 net.cpp:313] The NetState phase (0) differed from the phase (1) specified by a rule in layer data
I0729 15:47:39.989269 23414 net.cpp:49] Initializing net from parameters: 
name: "RankIQA_siamese_train_test"
state {
  phase: TRAIN
}
layer {
  name: "data"
  type: "Python"
  top: "data"
  top: "label"
  include {
    phase: TRAIN
  }
  python_param {
    module: "src.data_layer.rank_layer_live"
    layer: "DataLayer"
    param_str: " {\'pascal_root\': \'data\' ,\'split\': \'live_train\', \'im_shape\': [224, 224],\'batch_size\': 48}"
  }
}
layer {
  name: "conv1_1"
  type: "Convolution"
  bottom: "data"
  top: "conv1_1"
  param {
    lr_mult: 1
    decay_mult: 1
  }
  param {
    lr_mult: 2
    decay_mult: 0
  }
  convolution_param {
    num_output: 64
    pad: 1
    kernel_size: 3
    weight_filler {
      type: "xavier"
    }
    bias_filler {
      type: "constant"
    }
  }
}
layer {
  name: "relu1_1"
  type: "ReLU"
  bottom: "conv1_1"
  top: "conv1_1"
}
layer {
  name: "conv1_2"
  type: "Convolution"
  bottom: "conv1_1"
  top: "conv1_2"
  param {
    lr_mult: 1
    decay_mult: 1
  }
  param {
    lr_mult: 2
    decay_mult: 0
  }
  convolution_param {
    num_output: 64
    pad: 1
    kernel_size: 3
    weight_filler {
      type: "xavier"
    }
    bias_filler {
      type: "constant"
    }
  }
}
layer {
  name: "relu1_2"
  type: "ReLU"
  bottom: "conv1_2"
  top: "conv1_2"
}
layer {
  name: "pool1"
  type: "Pooling"
  bottom: "conv1_2"
  top: "pool1"
  pooling_param {
    pool: MAX
    kernel_size: 2
    stride: 2
  }
}
layer {
  name: "conv2_1"
  type: "Convolution"
  bottom: "pool1"
  top: "conv2_1"
  param {
    lr_mult: 1
    decay_mult: 1
  }
  param {
    lr_mult: 2
    decay_mult: 0
  }
  convolution_param {
    num_output: 128
    pad: 1
    kernel_size: 3
    weight_filler {
      type: "xavier"
    }
    bias_filler {
      type: "constant"
    }
  }
}
layer {
  name: "relu2_1"
  type: "ReLU"
  bottom: "conv2_1"
  top: "conv2_1"
}
layer {
  name: "conv2_2"
  type: "Convolution"
  bottom: "conv2_1"
  top: "conv2_2"
  param {
    lr_mult: 1
    decay_mult: 1
  }
  param {
    lr_mult: 2
    decay_mult: 0
  }
  convolution_param {
    num_output: 128
    pad: 1
    kernel_size: 3
    weight_filler {
      type: "xavier"
    }
    bias_filler {
      type: "constant"
    }
  }
}
layer {
  name: "relu2_2"
  type: "ReLU"
  bottom: "conv2_2"
  top: "conv2_2"
}
layer {
  name: "pool2"
  type: "Pooling"
  bottom: "conv2_2"
  top: "pool2"
  pooling_param {
    pool: MAX
    kernel_size: 2
    stride: 2
  }
}
layer {
  name: "conv3_1"
  type: "Convolution"
  bottom: "pool2"
  top: "conv3_1"
  param {
    lr_mult: 1
    decay_mult: 1
  }
  param {
    lr_mult: 2
    decay_mult: 0
  }
  convolution_param {
    num_output: 256
    pad: 1
    kernel_size: 3
    weight_filler {
      type: "xavier"
    }
    bias_filler {
      type: "constant"
    }
  }
}
layer {
  name: "relu3_1"
  type: "ReLU"
  bottom: "conv3_1"
  top: "conv3_1"
}
layer {
  name: "conv3_2"
  type: "Convolution"
  bottom: "conv3_1"
  top: "conv3_2"
  param {
    lr_mult: 1
    decay_mult: 1
  }
  param {
    lr_mult: 2
    decay_mult: 0
  }
  convolution_param {
    num_output: 256
    pad: 1
    kernel_size: 3
    weight_filler {
      type: "xavier"
    }
    bias_filler {
      type: "constant"
    }
  }
}
layer {
  name: "relu3_2"
  type: "ReLU"
  bottom: "conv3_2"
  top: "conv3_2"
}
layer {
  name: "conv3_3"
  type: "Convolution"
  bottom: "conv3_2"
  top: "conv3_3"
  param {
    lr_mult: 1
    decay_mult: 1
  }
  param {
    lr_mult: 2
    decay_mult: 0
  }
  convolution_param {
    num_output: 256
    pad: 1
    kernel_size: 3
    weight_filler {
      type: "xavier"
    }
    bias_filler {
      type: "constant"
    }
  }
}
layer {
  name: "relu3_3"
  type: "ReLU"
  bottom: "conv3_3"
  top: "conv3_3"
}
layer {
  name: "pool3"
  type: "Pooling"
  bottom: "conv3_3"
  top: "pool3"
  pooling_param {
    pool: MAX
    kernel_size: 2
    stride: 2
  }
}
layer {
  name: "conv4_1"
  type: "Convolution"
  bottom: "pool3"
  top: "conv4_1"
  param {
    lr_mult: 1
    decay_mult: 1
  }
  param {
    lr_mult: 2
    decay_mult: 0
  }
  convolution_param {
    num_output: 512
    pad: 1
    kernel_size: 3
    weight_filler {
      type: "xavier"
    }
    bias_filler {
      type: "constant"
    }
  }
}
layer {
  name: "relu4_1"
  type: "ReLU"
  bottom: "conv4_1"
  top: "conv4_1"
}
layer {
  name: "conv4_2"
  type: "Convolution"
  bottom: "conv4_1"
  top: "conv4_2"
  param {
    lr_mult: 1
    decay_mult: 1
  }
  param {
    lr_mult: 2
    decay_mult: 0
  }
  convolution_param {
    num_output: 512
    pad: 1
    kernel_size: 3
    weight_filler {
      type: "xavier"
    }
    bias_filler {
      type: "constant"
    }
  }
}
layer {
  name: "relu4_2"
  type: "ReLU"
  bottom: "conv4_2"
  top: "conv4_2"
}
layer {
  name: "conv4_3"
  type: "Convolution"
  bottom: "conv4_2"
  top: "conv4_3"
  param {
    lr_mult: 1
    decay_mult: 1
  }
  param {
    lr_mult: 2
    decay_mult: 0
  }
  convolution_param {
    num_output: 512
    pad: 1
    kernel_size: 3
    weight_filler {
      type: "xavier"
    }
    bias_filler {
      type: "constant"
    }
  }
}
layer {
  name: "relu4_3"
  type: "ReLU"
  bottom: "conv4_3"
  top: "conv4_3"
}
layer {
  name: "pool4"
  type: "Pooling"
  bottom: "conv4_3"
  top: "pool4"
  pooling_param {
    pool: MAX
    kernel_size: 2
    stride: 2
  }
}
layer {
  name: "conv5_1"
  type: "Convolution"
  bottom: "pool4"
  top: "conv5_1"
  param {
    lr_mult: 1
    decay_mult: 1
  }
  param {
    lr_mult: 2
    decay_mult: 0
  }
  convolution_param {
    num_output: 512
    pad: 1
    kernel_size: 3
    weight_filler {
      type: "xavier"
    }
    bias_filler {
      type: "constant"
    }
  }
}
layer {
  name: "relu5_1"
  type: "ReLU"
  bottom: "conv5_1"
  top: "conv5_1"
}
layer {
  name: "conv5_2"
  type: "Convolution"
  bottom: "conv5_1"
  top: "conv5_2"
  param {
    lr_mult: 1
    decay_mult: 1
  }
  param {
    lr_mult: 2
    decay_mult: 0
  }
  convolution_param {
    num_output: 512
    pad: 1
    kernel_size: 3
    weight_filler {
      type: "xavier"
    }
    bias_filler {
      type: "constant"
    }
  }
}
layer {
  name: "relu5_2"
  type: "ReLU"
  bottom: "conv5_2"
  top: "conv5_2"
}
layer {
  name: "conv5_3"
  type: "Convolution"
  bottom: "conv5_2"
  top: "conv5_3"
  param {
    lr_mult: 1
    decay_mult: 1
  }
  param {
    lr_mult: 2
    decay_mult: 0
  }
  convolution_param {
    num_output: 512
    pad: 1
    kernel_size: 3
    weight_filler {
      type: "xavier"
    }
    bias_filler {
      type: "constant"
    }
  }
}
layer {
  name: "relu5_3"
  type: "ReLU"
  bottom: "conv5_3"
  top: "conv5_3"
}
layer {
  name: "pool5"
  type: "Pooling"
  bottom: "conv5_3"
  top: "pool5"
  pooling_param {
    pool: MAX
    kernel_size: 2
    stride: 2
  }
}
layer {
  name: "fc6"
  type: "InnerProduct"
  bottom: "pool5"
  top: "fc6"
  param {
    lr_mult: 1
    decay_mult: 1
  }
  param {
    lr_mult: 2
    decay_mult: 0
  }
  inner_product_param {
    num_output: 4096
    weight_filler {
      type: "xavier"
    }
    bias_filler {
      type: "constant"
    }
  }
}
layer {
  name: "relu6"
  type: "ReLU"
  bottom: "fc6"
  top: "fc6"
}
layer {
  name: "drop6"
  type: "Dropout"
  bottom: "fc6"
  top: "fc6"
  dropout_param {
    dropout_ratio: 0.5
  }
}
layer {
  name: "fc7"
  type: "InnerProduct"
  bottom: "fc6"
  top: "fc7"
  param {
    lr_mult: 1
    decay_mult: 1
  }
  param {
    lr_mult: 2
    decay_mult: 0
  }
  inner_product_param {
    num_output: 4096
    weight_filler {
      type: "xavier"
    }
    bias_filler {
      type: "constant"
    }
  }
}
layer {
  name: "relu7"
  type: "ReLU"
  bottom: "fc7"
  top: "fc7"
}
layer {
  name: "drop7"
  type: "Dropout"
  bottom: "fc7"
  top: "fc7"
  dropout_param {
    dropout_ratio: 0.5
  }
}
layer {
  name: "fc8_m"
  type: "InnerProduct"
  bottom: "fc7"
  top: "fc8_m"
  param {
    lr_mult: 10
    decay_mult: 1
  }
  param {
    lr_mult: 20
    decay_mult: 0
  }
  inner_product_param {
    num_output: 1
    weight_filler {
      type: "xavier"
    }
    bias_filler {
      type: "constant"
    }
  }
}
layer {
  name: "accuracy"
  type: "Python"
  bottom: "fc8_m"
  bottom: "label"
  top: "loss"
  loss_weight: 1
  python_param {
    module: "src.MyLossLayer.netloss_live"
    layer: "MyLossLayer"
  }
}
I0729 15:47:39.989533 23414 layer_factory.hpp:77] Creating layer data
/home/xialei/caffe/distribute/python/caffe/pycaffe.py:13: RuntimeWarning: to-Python converter for boost::shared_ptr<caffe::Net<float> > already registered; second conversion method ignored.
  from ._caffe import Net, SGDSolver, NesterovSolver, AdaGradSolver, \
/home/xialei/caffe/distribute/python/caffe/pycaffe.py:13: RuntimeWarning: to-Python converter for boost::shared_ptr<caffe::Blob<float> > already registered; second conversion method ignored.
  from ._caffe import Net, SGDSolver, NesterovSolver, AdaGradSolver, \
/home/xialei/caffe/distribute/python/caffe/pycaffe.py:13: RuntimeWarning: to-Python converter for boost::shared_ptr<caffe::Solver<float> > already registered; second conversion method ignored.
  from ._caffe import Net, SGDSolver, NesterovSolver, AdaGradSolver, \
I0729 15:47:40.769461 23414 net.cpp:91] Creating Layer data
I0729 15:47:40.769503 23414 net.cpp:399] data -> data
I0729 15:47:40.769533 23414 net.cpp:399] data -> label
I0729 15:47:40.826689 23414 net.cpp:141] Setting up data
I0729 15:47:40.826745 23414 net.cpp:148] Top shape: 48 3 224 224 (7225344)
I0729 15:47:40.826751 23414 net.cpp:148] Top shape: 48 1 (48)
I0729 15:47:40.826756 23414 net.cpp:156] Memory required for data: 28901568
I0729 15:47:40.826773 23414 layer_factory.hpp:77] Creating layer conv1_1
I0729 15:47:40.826812 23414 net.cpp:91] Creating Layer conv1_1
I0729 15:47:40.826819 23414 net.cpp:425] conv1_1 <- data
I0729 15:47:40.826845 23414 net.cpp:399] conv1_1 -> conv1_1
I0729 15:47:41.028091 23414 net.cpp:141] Setting up conv1_1
I0729 15:47:41.028123 23414 net.cpp:148] Top shape: 48 64 224 224 (154140672)
I0729 15:47:41.028127 23414 net.cpp:156] Memory required for data: 645464256
I0729 15:47:41.028146 23414 layer_factory.hpp:77] Creating layer relu1_1
I0729 15:47:41.028163 23414 net.cpp:91] Creating Layer relu1_1
I0729 15:47:41.028168 23414 net.cpp:425] relu1_1 <- conv1_1
I0729 15:47:41.028174 23414 net.cpp:386] relu1_1 -> conv1_1 (in-place)
I0729 15:47:41.028426 23414 net.cpp:141] Setting up relu1_1
I0729 15:47:41.028439 23414 net.cpp:148] Top shape: 48 64 224 224 (154140672)
I0729 15:47:41.028441 23414 net.cpp:156] Memory required for data: 1262026944
I0729 15:47:41.028445 23414 layer_factory.hpp:77] Creating layer conv1_2
I0729 15:47:41.028457 23414 net.cpp:91] Creating Layer conv1_2
I0729 15:47:41.028460 23414 net.cpp:425] conv1_2 <- conv1_1
I0729 15:47:41.028465 23414 net.cpp:399] conv1_2 -> conv1_2
I0729 15:47:41.029464 23414 net.cpp:141] Setting up conv1_2
I0729 15:47:41.029477 23414 net.cpp:148] Top shape: 48 64 224 224 (154140672)
I0729 15:47:41.029480 23414 net.cpp:156] Memory required for data: 1878589632
I0729 15:47:41.029489 23414 layer_factory.hpp:77] Creating layer relu1_2
I0729 15:47:41.029495 23414 net.cpp:91] Creating Layer relu1_2
I0729 15:47:41.029497 23414 net.cpp:425] relu1_2 <- conv1_2
I0729 15:47:41.029501 23414 net.cpp:386] relu1_2 -> conv1_2 (in-place)
I0729 15:47:41.029727 23414 net.cpp:141] Setting up relu1_2
I0729 15:47:41.029739 23414 net.cpp:148] Top shape: 48 64 224 224 (154140672)
I0729 15:47:41.029742 23414 net.cpp:156] Memory required for data: 2495152320
I0729 15:47:41.029752 23414 layer_factory.hpp:77] Creating layer pool1
I0729 15:47:41.029762 23414 net.cpp:91] Creating Layer pool1
I0729 15:47:41.029765 23414 net.cpp:425] pool1 <- conv1_2
I0729 15:47:41.029770 23414 net.cpp:399] pool1 -> pool1
I0729 15:47:41.029817 23414 net.cpp:141] Setting up pool1
I0729 15:47:41.029825 23414 net.cpp:148] Top shape: 48 64 112 112 (38535168)
I0729 15:47:41.029829 23414 net.cpp:156] Memory required for data: 2649292992
I0729 15:47:41.029830 23414 layer_factory.hpp:77] Creating layer conv2_1
I0729 15:47:41.029866 23414 net.cpp:91] Creating Layer conv2_1
I0729 15:47:41.029870 23414 net.cpp:425] conv2_1 <- pool1
I0729 15:47:41.029875 23414 net.cpp:399] conv2_1 -> conv2_1
I0729 15:47:41.032230 23414 net.cpp:141] Setting up conv2_1
I0729 15:47:41.032243 23414 net.cpp:148] Top shape: 48 128 112 112 (77070336)
I0729 15:47:41.032248 23414 net.cpp:156] Memory required for data: 2957574336
I0729 15:47:41.032254 23414 layer_factory.hpp:77] Creating layer relu2_1
I0729 15:47:41.032260 23414 net.cpp:91] Creating Layer relu2_1
I0729 15:47:41.032263 23414 net.cpp:425] relu2_1 <- conv2_1
I0729 15:47:41.032268 23414 net.cpp:386] relu2_1 -> conv2_1 (in-place)
I0729 15:47:41.032407 23414 net.cpp:141] Setting up relu2_1
I0729 15:47:41.032416 23414 net.cpp:148] Top shape: 48 128 112 112 (77070336)
I0729 15:47:41.032418 23414 net.cpp:156] Memory required for data: 3265855680
I0729 15:47:41.032423 23414 layer_factory.hpp:77] Creating layer conv2_2
I0729 15:47:41.032436 23414 net.cpp:91] Creating Layer conv2_2
I0729 15:47:41.032440 23414 net.cpp:425] conv2_2 <- conv2_1
I0729 15:47:41.032445 23414 net.cpp:399] conv2_2 -> conv2_2
I0729 15:47:41.034088 23414 net.cpp:141] Setting up conv2_2
I0729 15:47:41.034101 23414 net.cpp:148] Top shape: 48 128 112 112 (77070336)
I0729 15:47:41.034103 23414 net.cpp:156] Memory required for data: 3574137024
I0729 15:47:41.034108 23414 layer_factory.hpp:77] Creating layer relu2_2
I0729 15:47:41.034114 23414 net.cpp:91] Creating Layer relu2_2
I0729 15:47:41.034117 23414 net.cpp:425] relu2_2 <- conv2_2
I0729 15:47:41.034121 23414 net.cpp:386] relu2_2 -> conv2_2 (in-place)
I0729 15:47:41.034351 23414 net.cpp:141] Setting up relu2_2
I0729 15:47:41.034363 23414 net.cpp:148] Top shape: 48 128 112 112 (77070336)
I0729 15:47:41.034366 23414 net.cpp:156] Memory required for data: 3882418368
I0729 15:47:41.034369 23414 layer_factory.hpp:77] Creating layer pool2
I0729 15:47:41.034375 23414 net.cpp:91] Creating Layer pool2
I0729 15:47:41.034379 23414 net.cpp:425] pool2 <- conv2_2
I0729 15:47:41.034382 23414 net.cpp:399] pool2 -> pool2
I0729 15:47:41.034428 23414 net.cpp:141] Setting up pool2
I0729 15:47:41.034435 23414 net.cpp:148] Top shape: 48 128 56 56 (19267584)
I0729 15:47:41.034437 23414 net.cpp:156] Memory required for data: 3959488704
I0729 15:47:41.034440 23414 layer_factory.hpp:77] Creating layer conv3_1
I0729 15:47:41.034451 23414 net.cpp:91] Creating Layer conv3_1
I0729 15:47:41.034456 23414 net.cpp:425] conv3_1 <- pool2
I0729 15:47:41.034459 23414 net.cpp:399] conv3_1 -> conv3_1
I0729 15:47:41.037461 23414 net.cpp:141] Setting up conv3_1
I0729 15:47:41.037473 23414 net.cpp:148] Top shape: 48 256 56 56 (38535168)
I0729 15:47:41.037477 23414 net.cpp:156] Memory required for data: 4113629376
I0729 15:47:41.037489 23414 layer_factory.hpp:77] Creating layer relu3_1
I0729 15:47:41.037495 23414 net.cpp:91] Creating Layer relu3_1
I0729 15:47:41.037498 23414 net.cpp:425] relu3_1 <- conv3_1
I0729 15:47:41.037503 23414 net.cpp:386] relu3_1 -> conv3_1 (in-place)
I0729 15:47:41.037740 23414 net.cpp:141] Setting up relu3_1
I0729 15:47:41.037753 23414 net.cpp:148] Top shape: 48 256 56 56 (38535168)
I0729 15:47:41.037756 23414 net.cpp:156] Memory required for data: 4267770048
I0729 15:47:41.037760 23414 layer_factory.hpp:77] Creating layer conv3_2
I0729 15:47:41.037766 23414 net.cpp:91] Creating Layer conv3_2
I0729 15:47:41.037770 23414 net.cpp:425] conv3_2 <- conv3_1
I0729 15:47:41.037775 23414 net.cpp:399] conv3_2 -> conv3_2
I0729 15:47:41.043207 23414 net.cpp:141] Setting up conv3_2
I0729 15:47:41.043220 23414 net.cpp:148] Top shape: 48 256 56 56 (38535168)
I0729 15:47:41.043223 23414 net.cpp:156] Memory required for data: 4421910720
I0729 15:47:41.043228 23414 layer_factory.hpp:77] Creating layer relu3_2
I0729 15:47:41.043236 23414 net.cpp:91] Creating Layer relu3_2
I0729 15:47:41.043241 23414 net.cpp:425] relu3_2 <- conv3_2
I0729 15:47:41.043246 23414 net.cpp:386] relu3_2 -> conv3_2 (in-place)
I0729 15:47:41.043398 23414 net.cpp:141] Setting up relu3_2
I0729 15:47:41.043409 23414 net.cpp:148] Top shape: 48 256 56 56 (38535168)
I0729 15:47:41.043423 23414 net.cpp:156] Memory required for data: 4576051392
I0729 15:47:41.043426 23414 layer_factory.hpp:77] Creating layer conv3_3
I0729 15:47:41.043437 23414 net.cpp:91] Creating Layer conv3_3
I0729 15:47:41.043440 23414 net.cpp:425] conv3_3 <- conv3_2
I0729 15:47:41.043445 23414 net.cpp:399] conv3_3 -> conv3_3
I0729 15:47:41.048887 23414 net.cpp:141] Setting up conv3_3
I0729 15:47:41.048899 23414 net.cpp:148] Top shape: 48 256 56 56 (38535168)
I0729 15:47:41.048902 23414 net.cpp:156] Memory required for data: 4730192064
I0729 15:47:41.048912 23414 layer_factory.hpp:77] Creating layer relu3_3
I0729 15:47:41.048919 23414 net.cpp:91] Creating Layer relu3_3
I0729 15:47:41.048923 23414 net.cpp:425] relu3_3 <- conv3_3
I0729 15:47:41.048926 23414 net.cpp:386] relu3_3 -> conv3_3 (in-place)
I0729 15:47:41.049181 23414 net.cpp:141] Setting up relu3_3
I0729 15:47:41.049195 23414 net.cpp:148] Top shape: 48 256 56 56 (38535168)
I0729 15:47:41.049198 23414 net.cpp:156] Memory required for data: 4884332736
I0729 15:47:41.049201 23414 layer_factory.hpp:77] Creating layer pool3
I0729 15:47:41.049209 23414 net.cpp:91] Creating Layer pool3
I0729 15:47:41.049212 23414 net.cpp:425] pool3 <- conv3_3
I0729 15:47:41.049216 23414 net.cpp:399] pool3 -> pool3
I0729 15:47:41.049257 23414 net.cpp:141] Setting up pool3
I0729 15:47:41.049262 23414 net.cpp:148] Top shape: 48 256 28 28 (9633792)
I0729 15:47:41.049263 23414 net.cpp:156] Memory required for data: 4922867904
I0729 15:47:41.049266 23414 layer_factory.hpp:77] Creating layer conv4_1
I0729 15:47:41.049274 23414 net.cpp:91] Creating Layer conv4_1
I0729 15:47:41.049278 23414 net.cpp:425] conv4_1 <- pool3
I0729 15:47:41.049283 23414 net.cpp:399] conv4_1 -> conv4_1
I0729 15:47:41.059366 23414 net.cpp:141] Setting up conv4_1
I0729 15:47:41.059379 23414 net.cpp:148] Top shape: 48 512 28 28 (19267584)
I0729 15:47:41.059382 23414 net.cpp:156] Memory required for data: 4999938240
I0729 15:47:41.059387 23414 layer_factory.hpp:77] Creating layer relu4_1
I0729 15:47:41.059392 23414 net.cpp:91] Creating Layer relu4_1
I0729 15:47:41.059396 23414 net.cpp:425] relu4_1 <- conv4_1
I0729 15:47:41.059401 23414 net.cpp:386] relu4_1 -> conv4_1 (in-place)
I0729 15:47:41.059651 23414 net.cpp:141] Setting up relu4_1
I0729 15:47:41.059664 23414 net.cpp:148] Top shape: 48 512 28 28 (19267584)
I0729 15:47:41.059666 23414 net.cpp:156] Memory required for data: 5077008576
I0729 15:47:41.059679 23414 layer_factory.hpp:77] Creating layer conv4_2
I0729 15:47:41.059690 23414 net.cpp:91] Creating Layer conv4_2
I0729 15:47:41.059693 23414 net.cpp:425] conv4_2 <- conv4_1
I0729 15:47:41.059700 23414 net.cpp:399] conv4_2 -> conv4_2
I0729 15:47:41.078169 23414 net.cpp:141] Setting up conv4_2
I0729 15:47:41.078186 23414 net.cpp:148] Top shape: 48 512 28 28 (19267584)
I0729 15:47:41.078189 23414 net.cpp:156] Memory required for data: 5154078912
I0729 15:47:41.078202 23414 layer_factory.hpp:77] Creating layer relu4_2
I0729 15:47:41.078207 23414 net.cpp:91] Creating Layer relu4_2
I0729 15:47:41.078212 23414 net.cpp:425] relu4_2 <- conv4_2
I0729 15:47:41.078217 23414 net.cpp:386] relu4_2 -> conv4_2 (in-place)
I0729 15:47:41.078368 23414 net.cpp:141] Setting up relu4_2
I0729 15:47:41.078384 23414 net.cpp:148] Top shape: 48 512 28 28 (19267584)
I0729 15:47:41.078387 23414 net.cpp:156] Memory required for data: 5231149248
I0729 15:47:41.078402 23414 layer_factory.hpp:77] Creating layer conv4_3
I0729 15:47:41.078413 23414 net.cpp:91] Creating Layer conv4_3
I0729 15:47:41.078416 23414 net.cpp:425] conv4_3 <- conv4_2
I0729 15:47:41.078421 23414 net.cpp:399] conv4_3 -> conv4_3
I0729 15:47:41.099705 23414 net.cpp:141] Setting up conv4_3
I0729 15:47:41.099736 23414 net.cpp:148] Top shape: 48 512 28 28 (19267584)
I0729 15:47:41.099740 23414 net.cpp:156] Memory required for data: 5308219584
I0729 15:47:41.099772 23414 layer_factory.hpp:77] Creating layer relu4_3
I0729 15:47:41.099792 23414 net.cpp:91] Creating Layer relu4_3
I0729 15:47:41.099800 23414 net.cpp:425] relu4_3 <- conv4_3
I0729 15:47:41.099828 23414 net.cpp:386] relu4_3 -> conv4_3 (in-place)
I0729 15:47:41.100102 23414 net.cpp:141] Setting up relu4_3
I0729 15:47:41.100113 23414 net.cpp:148] Top shape: 48 512 28 28 (19267584)
I0729 15:47:41.100116 23414 net.cpp:156] Memory required for data: 5385289920
I0729 15:47:41.100118 23414 layer_factory.hpp:77] Creating layer pool4
I0729 15:47:41.100126 23414 net.cpp:91] Creating Layer pool4
I0729 15:47:41.100128 23414 net.cpp:425] pool4 <- conv4_3
I0729 15:47:41.100137 23414 net.cpp:399] pool4 -> pool4
I0729 15:47:41.100189 23414 net.cpp:141] Setting up pool4
I0729 15:47:41.100194 23414 net.cpp:148] Top shape: 48 512 14 14 (4816896)
I0729 15:47:41.100198 23414 net.cpp:156] Memory required for data: 5404557504
I0729 15:47:41.100199 23414 layer_factory.hpp:77] Creating layer conv5_1
I0729 15:47:41.100214 23414 net.cpp:91] Creating Layer conv5_1
I0729 15:47:41.100216 23414 net.cpp:425] conv5_1 <- pool4
I0729 15:47:41.100221 23414 net.cpp:399] conv5_1 -> conv5_1
I0729 15:47:41.118749 23414 net.cpp:141] Setting up conv5_1
I0729 15:47:41.118765 23414 net.cpp:148] Top shape: 48 512 14 14 (4816896)
I0729 15:47:41.118768 23414 net.cpp:156] Memory required for data: 5423825088
I0729 15:47:41.118775 23414 layer_factory.hpp:77] Creating layer relu5_1
I0729 15:47:41.118800 23414 net.cpp:91] Creating Layer relu5_1
I0729 15:47:41.118804 23414 net.cpp:425] relu5_1 <- conv5_1
I0729 15:47:41.118811 23414 net.cpp:386] relu5_1 -> conv5_1 (in-place)
I0729 15:47:41.119068 23414 net.cpp:141] Setting up relu5_1
I0729 15:47:41.119079 23414 net.cpp:148] Top shape: 48 512 14 14 (4816896)
I0729 15:47:41.119082 23414 net.cpp:156] Memory required for data: 5443092672
I0729 15:47:41.119086 23414 layer_factory.hpp:77] Creating layer conv5_2
I0729 15:47:41.119104 23414 net.cpp:91] Creating Layer conv5_2
I0729 15:47:41.119109 23414 net.cpp:425] conv5_2 <- conv5_1
I0729 15:47:41.119114 23414 net.cpp:399] conv5_2 -> conv5_2
I0729 15:47:41.137614 23414 net.cpp:141] Setting up conv5_2
I0729 15:47:41.137634 23414 net.cpp:148] Top shape: 48 512 14 14 (4816896)
I0729 15:47:41.137636 23414 net.cpp:156] Memory required for data: 5462360256
I0729 15:47:41.137646 23414 layer_factory.hpp:77] Creating layer relu5_2
I0729 15:47:41.137653 23414 net.cpp:91] Creating Layer relu5_2
I0729 15:47:41.137657 23414 net.cpp:425] relu5_2 <- conv5_2
I0729 15:47:41.137662 23414 net.cpp:386] relu5_2 -> conv5_2 (in-place)
I0729 15:47:41.137810 23414 net.cpp:141] Setting up relu5_2
I0729 15:47:41.137820 23414 net.cpp:148] Top shape: 48 512 14 14 (4816896)
I0729 15:47:41.137821 23414 net.cpp:156] Memory required for data: 5481627840
I0729 15:47:41.137825 23414 layer_factory.hpp:77] Creating layer conv5_3
I0729 15:47:41.137835 23414 net.cpp:91] Creating Layer conv5_3
I0729 15:47:41.137838 23414 net.cpp:425] conv5_3 <- conv5_2
I0729 15:47:41.137843 23414 net.cpp:399] conv5_3 -> conv5_3
I0729 15:47:41.156363 23414 net.cpp:141] Setting up conv5_3
I0729 15:47:41.156380 23414 net.cpp:148] Top shape: 48 512 14 14 (4816896)
I0729 15:47:41.156383 23414 net.cpp:156] Memory required for data: 5500895424
I0729 15:47:41.156389 23414 layer_factory.hpp:77] Creating layer relu5_3
I0729 15:47:41.156419 23414 net.cpp:91] Creating Layer relu5_3
I0729 15:47:41.156424 23414 net.cpp:425] relu5_3 <- conv5_3
I0729 15:47:41.156427 23414 net.cpp:386] relu5_3 -> conv5_3 (in-place)
I0729 15:47:41.156682 23414 net.cpp:141] Setting up relu5_3
I0729 15:47:41.156692 23414 net.cpp:148] Top shape: 48 512 14 14 (4816896)
I0729 15:47:41.156695 23414 net.cpp:156] Memory required for data: 5520163008
I0729 15:47:41.156710 23414 layer_factory.hpp:77] Creating layer pool5
I0729 15:47:41.156716 23414 net.cpp:91] Creating Layer pool5
I0729 15:47:41.156719 23414 net.cpp:425] pool5 <- conv5_3
I0729 15:47:41.156725 23414 net.cpp:399] pool5 -> pool5
I0729 15:47:41.156769 23414 net.cpp:141] Setting up pool5
I0729 15:47:41.156775 23414 net.cpp:148] Top shape: 48 512 7 7 (1204224)
I0729 15:47:41.156779 23414 net.cpp:156] Memory required for data: 5524979904
I0729 15:47:41.156780 23414 layer_factory.hpp:77] Creating layer fc6
I0729 15:47:41.156816 23414 net.cpp:91] Creating Layer fc6
I0729 15:47:41.156826 23414 net.cpp:425] fc6 <- pool5
I0729 15:47:41.156831 23414 net.cpp:399] fc6 -> fc6
I0729 15:47:41.944588 23414 net.cpp:141] Setting up fc6
I0729 15:47:41.944625 23414 net.cpp:148] Top shape: 48 4096 (196608)
I0729 15:47:41.944628 23414 net.cpp:156] Memory required for data: 5525766336
I0729 15:47:41.944638 23414 layer_factory.hpp:77] Creating layer relu6
I0729 15:47:41.944661 23414 net.cpp:91] Creating Layer relu6
I0729 15:47:41.944666 23414 net.cpp:425] relu6 <- fc6
I0729 15:47:41.944674 23414 net.cpp:386] relu6 -> fc6 (in-place)
I0729 15:47:41.944967 23414 net.cpp:141] Setting up relu6
I0729 15:47:41.944977 23414 net.cpp:148] Top shape: 48 4096 (196608)
I0729 15:47:41.944980 23414 net.cpp:156] Memory required for data: 5526552768
I0729 15:47:41.944983 23414 layer_factory.hpp:77] Creating layer drop6
I0729 15:47:41.944990 23414 net.cpp:91] Creating Layer drop6
I0729 15:47:41.944993 23414 net.cpp:425] drop6 <- fc6
I0729 15:47:41.944999 23414 net.cpp:386] drop6 -> fc6 (in-place)
I0729 15:47:41.945036 23414 net.cpp:141] Setting up drop6
I0729 15:47:41.945041 23414 net.cpp:148] Top shape: 48 4096 (196608)
I0729 15:47:41.945045 23414 net.cpp:156] Memory required for data: 5527339200
I0729 15:47:41.945061 23414 layer_factory.hpp:77] Creating layer fc7
I0729 15:47:41.945070 23414 net.cpp:91] Creating Layer fc7
I0729 15:47:41.945071 23414 net.cpp:425] fc7 <- fc6
I0729 15:47:41.945076 23414 net.cpp:399] fc7 -> fc7
I0729 15:47:42.073181 23414 net.cpp:141] Setting up fc7
I0729 15:47:42.073213 23414 net.cpp:148] Top shape: 48 4096 (196608)
I0729 15:47:42.073216 23414 net.cpp:156] Memory required for data: 5528125632
I0729 15:47:42.073225 23414 layer_factory.hpp:77] Creating layer relu7
I0729 15:47:42.073235 23414 net.cpp:91] Creating Layer relu7
I0729 15:47:42.073240 23414 net.cpp:425] relu7 <- fc7
I0729 15:47:42.073247 23414 net.cpp:386] relu7 -> fc7 (in-place)
I0729 15:47:42.073736 23414 net.cpp:141] Setting up relu7
I0729 15:47:42.073747 23414 net.cpp:148] Top shape: 48 4096 (196608)
I0729 15:47:42.073750 23414 net.cpp:156] Memory required for data: 5528912064
I0729 15:47:42.073753 23414 layer_factory.hpp:77] Creating layer drop7
I0729 15:47:42.073789 23414 net.cpp:91] Creating Layer drop7
I0729 15:47:42.073803 23414 net.cpp:425] drop7 <- fc7
I0729 15:47:42.073809 23414 net.cpp:386] drop7 -> fc7 (in-place)
I0729 15:47:42.073839 23414 net.cpp:141] Setting up drop7
I0729 15:47:42.073844 23414 net.cpp:148] Top shape: 48 4096 (196608)
I0729 15:47:42.073846 23414 net.cpp:156] Memory required for data: 5529698496
I0729 15:47:42.073849 23414 layer_factory.hpp:77] Creating layer fc8_m
I0729 15:47:42.073858 23414 net.cpp:91] Creating Layer fc8_m
I0729 15:47:42.073861 23414 net.cpp:425] fc8_m <- fc7
I0729 15:47:42.073868 23414 net.cpp:399] fc8_m -> fc8_m
I0729 15:47:42.073992 23414 net.cpp:141] Setting up fc8_m
I0729 15:47:42.073999 23414 net.cpp:148] Top shape: 48 1 (48)
I0729 15:47:42.074002 23414 net.cpp:156] Memory required for data: 5529698688
I0729 15:47:42.074007 23414 layer_factory.hpp:77] Creating layer accuracy
I0729 15:47:42.076534 23414 net.cpp:91] Creating Layer accuracy
I0729 15:47:42.076546 23414 net.cpp:425] accuracy <- fc8_m
I0729 15:47:42.076550 23414 net.cpp:425] accuracy <- label
I0729 15:47:42.076556 23414 net.cpp:399] accuracy -> loss
I0729 15:47:42.076987 23414 net.cpp:141] Setting up accuracy
I0729 15:47:42.076998 23414 net.cpp:148] Top shape: 1 (1)
I0729 15:47:42.077002 23414 net.cpp:151]     with loss weight 1
I0729 15:47:42.077035 23414 net.cpp:156] Memory required for data: 5529698692
I0729 15:47:42.077039 23414 net.cpp:217] accuracy needs backward computation.
I0729 15:47:42.077042 23414 net.cpp:217] fc8_m needs backward computation.
I0729 15:47:42.077045 23414 net.cpp:217] drop7 needs backward computation.
I0729 15:47:42.077049 23414 net.cpp:217] relu7 needs backward computation.
…
