…
I0729 15:45:28.102958 23285 net.cpp:313] The NetState phase (0) differed from the phase (1) specified by a rule in layer data
I0729 15:45:28.103256 23285 net.cpp:49] Initializing net from parameters: 
name: "RankIQA_siamese_train_test"
state {
  phase: TRAIN
}
layer {
  name: "data"
  type: "Python"
  top: "data"
  top: "label"
  include {
    phase: TRAIN
  }
  python_param {
    module: "src.data_layer.rank_layer_tid2013"
    layer: "DataLayer"
    param_str: " {\'pascal_root\': \'data\' ,\'split\': \'tid2013_train\', \'im_shape\': [224, 224],\'batch_size\': 45}"
  }
}
layer {
  name: "conv1_1"
  type: "Convolution"
  bottom: "data"
  top: "conv1_1"
  param {
    lr_mult: 1
    decay_mult: 1
  }
  param {
    lr_mult: 2
    decay_mult: 0
  }
  convolution_param {
    num_output: 64
    pad: 1
    kernel_size: 3
    weight_filler {
      type: "xavier"
    }
    bias_filler {
      type: "constant"
    }
  }
}
layer {
  name: "relu1_1"
  type: "ReLU"
  bottom: "conv1_1"
  top: "conv1_1"
}
layer {
  name: "conv1_2"
  type: "Convolution"
  bottom: "conv1_1"
  top: "conv1_2"
  param {
    lr_mult: 1
    decay_mult: 1
  }
  param {
    lr_mult: 2
    decay_mult: 0
  }
  convolution_param {
    num_output: 64
    pad: 1
    kernel_size: 3
    weight_filler {
      type: "xavier"
    }
    bias_filler {
      type: "constant"
    }
  }
}
layer {
  name: "relu1_2"
  type: "ReLU"
  bottom: "conv1_2"
  top: "conv1_2"
}
layer {
  name: "pool1"
  type: "Pooling"
  bottom: "conv1_2"
  top: "pool1"
  pooling_param {
    pool: MAX
    kernel_size: 2
    stride: 2
  }
}
layer {
  name: "conv2_1"
  type: "Convolution"
  bottom: "pool1"
  top: "conv2_1"
  param {
    lr_mult: 1
    decay_mult: 1
  }
  param {
    lr_mult: 2
    decay_mult: 0
  }
  convolution_param {
    num_output: 128
    pad: 1
    kernel_size: 3
    weight_filler {
      type: "xavier"
    }
    bias_filler {
      type: "constant"
    }
  }
}
layer {
  name: "relu2_1"
  type: "ReLU"
  bottom: "conv2_1"
  top: "conv2_1"
}
layer {
  name: "conv2_2"
  type: "Convolution"
  bottom: "conv2_1"
  top: "conv2_2"
  param {
    lr_mult: 1
    decay_mult: 1
  }
  param {
    lr_mult: 2
    decay_mult: 0
  }
  convolution_param {
    num_output: 128
    pad: 1
    kernel_size: 3
    weight_filler {
      type: "xavier"
    }
    bias_filler {
      type: "constant"
    }
  }
}
layer {
  name: "relu2_2"
  type: "ReLU"
  bottom: "conv2_2"
  top: "conv2_2"
}
layer {
  name: "pool2"
  type: "Pooling"
  bottom: "conv2_2"
  top: "pool2"
  pooling_param {
    pool: MAX
    kernel_size: 2
    stride: 2
  }
}
layer {
  name: "conv3_1"
  type: "Convolution"
  bottom: "pool2"
  top: "conv3_1"
  param {
    lr_mult: 1
    decay_mult: 1
  }
  param {
    lr_mult: 2
    decay_mult: 0
  }
  convolution_param {
    num_output: 256
    pad: 1
    kernel_size: 3
    weight_filler {
      type: "xavier"
    }
    bias_filler {
      type: "constant"
    }
  }
}
layer {
  name: "relu3_1"
  type: "ReLU"
  bottom: "conv3_1"
  top: "conv3_1"
}
layer {
  name: "conv3_2"
  type: "Convolution"
  bottom: "conv3_1"
  top: "conv3_2"
  param {
    lr_mult: 1
    decay_mult: 1
  }
  param {
    lr_mult: 2
    decay_mult: 0
  }
  convolution_param {
    num_output: 256
    pad: 1
    kernel_size: 3
    weight_filler {
      type: "xavier"
    }
    bias_filler {
      type: "constant"
    }
  }
}
layer {
  name: "relu3_2"
  type: "ReLU"
  bottom: "conv3_2"
  top: "conv3_2"
}
layer {
  name: "conv3_3"
  type: "Convolution"
  bottom: "conv3_2"
  top: "conv3_3"
  param {
    lr_mult: 1
    decay_mult: 1
  }
  param {
    lr_mult: 2
    decay_mult: 0
  }
  convolution_param {
    num_output: 256
    pad: 1
    kernel_size: 3
    weight_filler {
      type: "xavier"
    }
    bias_filler {
      type: "constant"
    }
  }
}
layer {
  name: "relu3_3"
  type: "ReLU"
  bottom: "conv3_3"
  top: "conv3_3"
}
layer {
  name: "pool3"
  type: "Pooling"
  bottom: "conv3_3"
  top: "pool3"
  pooling_param {
    pool: MAX
    kernel_size: 2
    stride: 2
  }
}
layer {
  name: "conv4_1"
  type: "Convolution"
  bottom: "pool3"
  top: "conv4_1"
  param {
    lr_mult: 1
    decay_mult: 1
  }
  param {
    lr_mult: 2
    decay_mult: 0
  }
  convolution_param {
    num_output: 512
    pad: 1
    kernel_size: 3
    weight_filler {
      type: "xavier"
    }
    bias_filler {
      type: "constant"
    }
  }
}
layer {
  name: "relu4_1"
  type: "ReLU"
  bottom: "conv4_1"
  top: "conv4_1"
}
layer {
  name: "conv4_2"
  type: "Convolution"
  bottom: "conv4_1"
  top: "conv4_2"
  param {
    lr_mult: 1
    decay_mult: 1
  }
  param {
    lr_mult: 2
    decay_mult: 0
  }
  convolution_param {
    num_output: 512
    pad: 1
    kernel_size: 3
    weight_filler {
      type: "xavier"
    }
    bias_filler {
      type: "constant"
    }
  }
}
layer {
  name: "relu4_2"
  type: "ReLU"
  bottom: "conv4_2"
  top: "conv4_2"
}
layer {
  name: "conv4_3"
  type: "Convolution"
  bottom: "conv4_2"
  top: "conv4_3"
  param {
    lr_mult: 1
    decay_mult: 1
  }
  param {
    lr_mult: 2
    decay_mult: 0
  }
  convolution_param {
    num_output: 512
    pad: 1
    kernel_size: 3
    weight_filler {
      type: "xavier"
    }
    bias_filler {
      type: "constant"
    }
  }
}
layer {
  name: "relu4_3"
  type: "ReLU"
  bottom: "conv4_3"
  top: "conv4_3"
}
layer {
  name: "pool4"
  type: "Pooling"
  bottom: "conv4_3"
  top: "pool4"
  pooling_param {
    pool: MAX
    kernel_size: 2
    stride: 2
  }
}
layer {
  name: "conv5_1"
  type: "Convolution"
  bottom: "pool4"
  top: "conv5_1"
  param {
    lr_mult: 1
    decay_mult: 1
  }
  param {
    lr_mult: 2
    decay_mult: 0
  }
  convolution_param {
    num_output: 512
    pad: 1
    kernel_size: 3
    weight_filler {
      type: "xavier"
    }
    bias_filler {
      type: "constant"
    }
  }
}
layer {
  name: "relu5_1"
  type: "ReLU"
  bottom: "conv5_1"
  top: "conv5_1"
}
layer {
  name: "conv5_2"
  type: "Convolution"
  bottom: "conv5_1"
  top: "conv5_2"
  param {
    lr_mult: 1
    decay_mult: 1
  }
  param {
    lr_mult: 2
    decay_mult: 0
  }
  convolution_param {
    num_output: 512
    pad: 1
    kernel_size: 3
    weight_filler {
      type: "xavier"
    }
    bias_filler {
      type: "constant"
    }
  }
}
layer {
  name: "relu5_2"
  type: "ReLU"
  bottom: "conv5_2"
  top: "conv5_2"
}
layer {
  name: "conv5_3"
  type: "Convolution"
  bottom: "conv5_2"
  top: "conv5_3"
  param {
    lr_mult: 1
    decay_mult: 1
  }
  param {
    lr_mult: 2
    decay_mult: 0
  }
  convolution_param {
    num_output: 512
    pad: 1
    kernel_size: 3
    weight_filler {
      type: "xavier"
    }
    bias_filler {
      type: "constant"
    }
  }
}
layer {
  name: "relu5_3"
  type: "ReLU"
  bottom: "conv5_3"
  top: "conv5_3"
}
layer {
  name: "pool5"
  type: "Pooling"
  bottom: "conv5_3"
  top: "pool5"
  pooling_param {
    pool: MAX
    kernel_size: 2
    stride: 2
  }
}
layer {
  name: "fc6"
  type: "InnerProduct"
  bottom: "pool5"
  top: "fc6"
  param {
    lr_mult: 1
    decay_mult: 1
  }
  param {
    lr_mult: 2
    decay_mult: 0
  }
  inner_product_param {
    num_output: 4096
    weight_filler {
      type: "xavier"
    }
    bias_filler {
      type: "constant"
    }
  }
}
layer {
  name: "relu6"
  type: "ReLU"
  bottom: "fc6"
  top: "fc6"
}
layer {
  name: "drop6"
  type: "Dropout"
  bottom: "fc6"
  top: "fc6"
  dropout_param {
    dropout_ratio: 0.5
  }
}
layer {
  name: "fc7"
  type: "InnerProduct"
  bottom: "fc6"
  top: "fc7"
  param {
    lr_mult: 1
    decay_mult: 1
  }
  param {
    lr_mult: 2
    decay_mult: 0
  }
  inner_product_param {
    num_output: 4096
    weight_filler {
      type: "xavier"
    }
    bias_filler {
      type: "constant"
    }
  }
}
layer {
  name: "relu7"
  type: "ReLU"
  bottom: "fc7"
  top: "fc7"
}
layer {
  name: "drop7"
  type: "Dropout"
  bottom: "fc7"
  top: "fc7"
  dropout_param {
    dropout_ratio: 0.5
  }
}
layer {
  name: "fc8_m"
  type: "InnerProduct"
  bottom: "fc7"
  top: "fc8_m"
  param {
    lr_mult: 10
    decay_mult: 1
  }
  param {
    lr_mult: 20
    decay_mult: 0
  }
  inner_product_param {
    num_output: 1
    weight_filler {
      type: "xavier"
    }
    bias_filler {
      type: "constant"
    }
  }
}
layer {
  name: "accuracy"
  type: "Python"
  bottom: "fc8_m"
  bottom: "label"
  top: "loss"
  loss_weight: 1
  python_param {
    module: "src.MyLossLayer.netloss_tid2013"
    layer: "MyLossLayer"
  }
}
I0729 15:45:28.103543 23285 layer_factory.hpp:77] Creating layer data
/home/xialei/caffe/distribute/python/caffe/pycaffe.py:13: RuntimeWarning: to-Python converter for boost::shared_ptr<caffe::Net<float> > already registered; second conversion method ignored.
  from ._caffe import Net, SGDSolver, NesterovSolver, AdaGradSolver, \
/home/xialei/caffe/distribute/python/caffe/pycaffe.py:13: RuntimeWarning: to-Python converter for boost::shared_ptr<caffe::Blob<float> > already registered; second conversion method ignored.
  from ._caffe import Net, SGDSolver, NesterovSolver, AdaGradSolver, \
/home/xialei/caffe/distribute/python/caffe/pycaffe.py:13: RuntimeWarning: to-Python converter for boost::shared_ptr<caffe::Solver<float> > already registered; second conversion method ignored.
  from ._caffe import Net, SGDSolver, NesterovSolver, AdaGradSolver, \
I0729 15:45:29.013221 23285 net.cpp:91] Creating Layer data
I0729 15:45:29.013268 23285 net.cpp:399] data -> data
I0729 15:45:29.013306 23285 net.cpp:399] data -> label
I0729 15:45:29.089004 23285 net.cpp:141] Setting up data
I0729 15:45:29.089085 23285 net.cpp:148] Top shape: 45 3 224 224 (6773760)
I0729 15:45:29.089095 23285 net.cpp:148] Top shape: 45 1 (45)
I0729 15:45:29.089100 23285 net.cpp:156] Memory required for data: 27095220
I0729 15:45:29.089134 23285 layer_factory.hpp:77] Creating layer conv1_1
I0729 15:45:29.089200 23285 net.cpp:91] Creating Layer conv1_1
I0729 15:45:29.089212 23285 net.cpp:425] conv1_1 <- data
I0729 15:45:29.089254 23285 net.cpp:399] conv1_1 -> conv1_1
I0729 15:45:29.323431 23285 net.cpp:141] Setting up conv1_1
I0729 15:45:29.323521 23285 net.cpp:148] Top shape: 45 64 224 224 (144506880)
I0729 15:45:29.323527 23285 net.cpp:156] Memory required for data: 605122740
I0729 15:45:29.323576 23285 layer_factory.hpp:77] Creating layer relu1_1
I0729 15:45:29.323617 23285 net.cpp:91] Creating Layer relu1_1
I0729 15:45:29.323626 23285 net.cpp:425] relu1_1 <- conv1_1
I0729 15:45:29.323633 23285 net.cpp:386] relu1_1 -> conv1_1 (in-place)
I0729 15:45:29.323981 23285 net.cpp:141] Setting up relu1_1
I0729 15:45:29.323995 23285 net.cpp:148] Top shape: 45 64 224 224 (144506880)
I0729 15:45:29.323999 23285 net.cpp:156] Memory required for data: 1183150260
I0729 15:45:29.324018 23285 layer_factory.hpp:77] Creating layer conv1_2
I0729 15:45:29.324057 23285 net.cpp:91] Creating Layer conv1_2
I0729 15:45:29.324064 23285 net.cpp:425] conv1_2 <- conv1_1
I0729 15:45:29.324070 23285 net.cpp:399] conv1_2 -> conv1_2
I0729 15:45:29.325387 23285 net.cpp:141] Setting up conv1_2
I0729 15:45:29.325403 23285 net.cpp:148] Top shape: 45 64 224 224 (144506880)
I0729 15:45:29.325407 23285 net.cpp:156] Memory required for data: 1761177780
I0729 15:45:29.325417 23285 layer_factory.hpp:77] Creating layer relu1_2
I0729 15:45:29.325445 23285 net.cpp:91] Creating Layer relu1_2
I0729 15:45:29.325450 23285 net.cpp:425] relu1_2 <- conv1_2
I0729 15:45:29.325456 23285 net.cpp:386] relu1_2 -> conv1_2 (in-place)
I0729 15:45:29.325752 23285 net.cpp:141] Setting up relu1_2
I0729 15:45:29.325767 23285 net.cpp:148] Top shape: 45 64 224 224 (144506880)
I0729 15:45:29.325772 23285 net.cpp:156] Memory required for data: 2339205300
I0729 15:45:29.325775 23285 layer_factory.hpp:77] Creating layer pool1
I0729 15:45:29.325799 23285 net.cpp:91] Creating Layer pool1
I0729 15:45:29.325803 23285 net.cpp:425] pool1 <- conv1_2
I0729 15:45:29.325809 23285 net.cpp:399] pool1 -> pool1
I0729 15:45:29.325881 23285 net.cpp:141] Setting up pool1
I0729 15:45:29.325891 23285 net.cpp:148] Top shape: 45 64 112 112 (36126720)
I0729 15:45:29.325894 23285 net.cpp:156] Memory required for data: 2483712180
I0729 15:45:29.325898 23285 layer_factory.hpp:77] Creating layer conv2_1
I0729 15:45:29.325939 23285 net.cpp:91] Creating Layer conv2_1
I0729 15:45:29.325947 23285 net.cpp:425] conv2_1 <- pool1
I0729 15:45:29.325953 23285 net.cpp:399] conv2_1 -> conv2_1
I0729 15:45:29.328863 23285 net.cpp:141] Setting up conv2_1
I0729 15:45:29.328881 23285 net.cpp:148] Top shape: 45 128 112 112 (72253440)
I0729 15:45:29.328886 23285 net.cpp:156] Memory required for data: 2772725940
I0729 15:45:29.328896 23285 layer_factory.hpp:77] Creating layer relu2_1
I0729 15:45:29.328922 23285 net.cpp:91] Creating Layer relu2_1
I0729 15:45:29.328927 23285 net.cpp:425] relu2_1 <- conv2_1
I0729 15:45:29.328933 23285 net.cpp:386] relu2_1 -> conv2_1 (in-place)
I0729 15:45:29.329121 23285 net.cpp:141] Setting up relu2_1
I0729 15:45:29.329133 23285 net.cpp:148] Top shape: 45 128 112 112 (72253440)
I0729 15:45:29.329138 23285 net.cpp:156] Memory required for data: 3061739700
I0729 15:45:29.329140 23285 layer_factory.hpp:77] Creating layer conv2_2
I0729 15:45:29.329152 23285 net.cpp:91] Creating Layer conv2_2
I0729 15:45:29.329155 23285 net.cpp:425] conv2_2 <- conv2_1
I0729 15:45:29.329162 23285 net.cpp:399] conv2_2 -> conv2_2
I0729 15:45:29.331348 23285 net.cpp:141] Setting up conv2_2
I0729 15:45:29.331365 23285 net.cpp:148] Top shape: 45 128 112 112 (72253440)
I0729 15:45:29.331369 23285 net.cpp:156] Memory required for data: 3350753460
I0729 15:45:29.331377 23285 layer_factory.hpp:77] Creating layer relu2_2
I0729 15:45:29.331382 23285 net.cpp:91] Creating Layer relu2_2
I0729 15:45:29.331387 23285 net.cpp:425] relu2_2 <- conv2_2
I0729 15:45:29.331393 23285 net.cpp:386] relu2_2 -> conv2_2 (in-place)
I0729 15:45:29.331696 23285 net.cpp:141] Setting up relu2_2
I0729 15:45:29.331710 23285 net.cpp:148] Top shape: 45 128 112 112 (72253440)
I0729 15:45:29.331714 23285 net.cpp:156] Memory required for data: 3639767220
I0729 15:45:29.331735 23285 layer_factory.hpp:77] Creating layer pool2
I0729 15:45:29.331753 23285 net.cpp:91] Creating Layer pool2
I0729 15:45:29.331758 23285 net.cpp:425] pool2 <- conv2_2
I0729 15:45:29.331763 23285 net.cpp:399] pool2 -> pool2
I0729 15:45:29.331814 23285 net.cpp:141] Setting up pool2
I0729 15:45:29.331822 23285 net.cpp:148] Top shape: 45 128 56 56 (18063360)
I0729 15:45:29.331826 23285 net.cpp:156] Memory required for data: 3712020660
I0729 15:45:29.331830 23285 layer_factory.hpp:77] Creating layer conv3_1
I0729 15:45:29.331838 23285 net.cpp:91] Creating Layer conv3_1
I0729 15:45:29.331842 23285 net.cpp:425] conv3_1 <- pool2
I0729 15:45:29.331848 23285 net.cpp:399] conv3_1 -> conv3_1
I0729 15:45:29.335736 23285 net.cpp:141] Setting up conv3_1
I0729 15:45:29.335752 23285 net.cpp:148] Top shape: 45 256 56 56 (36126720)
I0729 15:45:29.335757 23285 net.cpp:156] Memory required for data: 3856527540
I0729 15:45:29.335767 23285 layer_factory.hpp:77] Creating layer relu3_1
I0729 15:45:29.335774 23285 net.cpp:91] Creating Layer relu3_1
I0729 15:45:29.335778 23285 net.cpp:425] relu3_1 <- conv3_1
I0729 15:45:29.335784 23285 net.cpp:386] relu3_1 -> conv3_1 (in-place)
I0729 15:45:29.336114 23285 net.cpp:141] Setting up relu3_1
I0729 15:45:29.336129 23285 net.cpp:148] Top shape: 45 256 56 56 (36126720)
I0729 15:45:29.336133 23285 net.cpp:156] Memory required for data: 4001034420
I0729 15:45:29.336138 23285 layer_factory.hpp:77] Creating layer conv3_2
I0729 15:45:29.336169 23285 net.cpp:91] Creating Layer conv3_2
I0729 15:45:29.336174 23285 net.cpp:425] conv3_2 <- conv3_1
I0729 15:45:29.336181 23285 net.cpp:399] conv3_2 -> conv3_2
I0729 15:45:29.343039 23285 net.cpp:141] Setting up conv3_2
I0729 15:45:29.343056 23285 net.cpp:148] Top shape: 45 256 56 56 (36126720)
I0729 15:45:29.343060 23285 net.cpp:156] Memory required for data: 4145541300
I0729 15:45:29.343075 23285 layer_factory.hpp:77] Creating layer relu3_2
I0729 15:45:29.343082 23285 net.cpp:91] Creating Layer relu3_2
I0729 15:45:29.343086 23285 net.cpp:425] relu3_2 <- conv3_2
I0729 15:45:29.343091 23285 net.cpp:386] relu3_2 -> conv3_2 (in-place)
I0729 15:45:29.343271 23285 net.cpp:141] Setting up relu3_2
I0729 15:45:29.343281 23285 net.cpp:148] Top shape: 45 256 56 56 (36126720)
I0729 15:45:29.343300 23285 net.cpp:156] Memory required for data: 4290048180
I0729 15:45:29.343305 23285 layer_factory.hpp:77] Creating layer conv3_3
I0729 15:45:29.343315 23285 net.cpp:91] Creating Layer conv3_3
I0729 15:45:29.343322 23285 net.cpp:425] conv3_3 <- conv3_2
I0729 15:45:29.343329 23285 net.cpp:399] conv3_3 -> conv3_3
I0729 15:45:29.350250 23285 net.cpp:141] Setting up conv3_3
I0729 15:45:29.350266 23285 net.cpp:148] Top shape: 45 256 56 56 (36126720)
I0729 15:45:29.350271 23285 net.cpp:156] Memory required for data: 4434555060
I0729 15:45:29.350278 23285 layer_factory.hpp:77] Creating layer relu3_3
I0729 15:45:29.350306 23285 net.cpp:91] Creating Layer relu3_3
I0729 15:45:29.350312 23285 net.cpp:425] relu3_3 <- conv3_3
I0729 15:45:29.350318 23285 net.cpp:386] relu3_3 -> conv3_3 (in-place)
I0729 15:45:29.350654 23285 net.cpp:141] Setting up relu3_3
I0729 15:45:29.350669 23285 net.cpp:148] Top shape: 45 256 56 56 (36126720)
I0729 15:45:29.350673 23285 net.cpp:156] Memory required for data: 4579061940
I0729 15:45:29.350677 23285 layer_factory.hpp:77] Creating layer pool3
I0729 15:45:29.350685 23285 net.cpp:91] Creating Layer pool3
I0729 15:45:29.350688 23285 net.cpp:425] pool3 <- conv3_3
I0729 15:45:29.350695 23285 net.cpp:399] pool3 -> pool3
I0729 15:45:29.350745 23285 net.cpp:141] Setting up pool3
I0729 15:45:29.350754 23285 net.cpp:148] Top shape: 45 256 28 28 (9031680)
I0729 15:45:29.350757 23285 net.cpp:156] Memory required for data: 4615188660
I0729 15:45:29.350775 23285 layer_factory.hpp:77] Creating layer conv4_1
I0729 15:45:29.350788 23285 net.cpp:91] Creating Layer conv4_1
I0729 15:45:29.350795 23285 net.cpp:425] conv4_1 <- pool3
I0729 15:45:29.350802 23285 net.cpp:399] conv4_1 -> conv4_1
I0729 15:45:29.363782 23285 net.cpp:141] Setting up conv4_1
I0729 15:45:29.363801 23285 net.cpp:148] Top shape: 45 512 28 28 (18063360)
I0729 15:45:29.363806 23285 net.cpp:156] Memory required for data: 4687442100
I0729 15:45:29.363812 23285 layer_factory.hpp:77] Creating layer relu4_1
I0729 15:45:29.363838 23285 net.cpp:91] Creating Layer relu4_1
I0729 15:45:29.363844 23285 net.cpp:425] relu4_1 <- conv4_1
I0729 15:45:29.363850 23285 net.cpp:386] relu4_1 -> conv4_1 (in-place)
I0729 15:45:29.364176 23285 net.cpp:141] Setting up relu4_1
I0729 15:45:29.364190 23285 net.cpp:148] Top shape: 45 512 28 28 (18063360)
I0729 15:45:29.364194 23285 net.cpp:156] Memory required for data: 4759695540
I0729 15:45:29.364198 23285 layer_factory.hpp:77] Creating layer conv4_2
I0729 15:45:29.364209 23285 net.cpp:91] Creating Layer conv4_2
I0729 15:45:29.364213 23285 net.cpp:425] conv4_2 <- conv4_1
I0729 15:45:29.364222 23285 net.cpp:399] conv4_2 -> conv4_2
I0729 15:45:29.388079 23285 net.cpp:141] Setting up conv4_2
I0729 15:45:29.388105 23285 net.cpp:148] Top shape: 45 512 28 28 (18063360)
I0729 15:45:29.388110 23285 net.cpp:156] Memory required for data: 4831948980
I0729 15:45:29.388146 23285 layer_factory.hpp:77] Creating layer relu4_2
I0729 15:45:29.388156 23285 net.cpp:91] Creating Layer relu4_2
I0729 15:45:29.388161 23285 net.cpp:425] relu4_2 <- conv4_2
I0729 15:45:29.388169 23285 net.cpp:386] relu4_2 -> conv4_2 (in-place)
I0729 15:45:29.388363 23285 net.cpp:141] Setting up relu4_2
I0729 15:45:29.388375 23285 net.cpp:148] Top shape: 45 512 28 28 (18063360)
I0729 15:45:29.388380 23285 net.cpp:156] Memory required for data: 4904202420
I0729 15:45:29.388383 23285 layer_factory.hpp:77] Creating layer conv4_3
I0729 15:45:29.388409 23285 net.cpp:91] Creating Layer conv4_3
I0729 15:45:29.388414 23285 net.cpp:425] conv4_3 <- conv4_2
I0729 15:45:29.388422 23285 net.cpp:399] conv4_3 -> conv4_3
I0729 15:45:29.412338 23285 net.cpp:141] Setting up conv4_3
I0729 15:45:29.412366 23285 net.cpp:148] Top shape: 45 512 28 28 (18063360)
I0729 15:45:29.412370 23285 net.cpp:156] Memory required for data: 4976455860
I0729 15:45:29.412379 23285 layer_factory.hpp:77] Creating layer relu4_3
I0729 15:45:29.412389 23285 net.cpp:91] Creating Layer relu4_3
I0729 15:45:29.412394 23285 net.cpp:425] relu4_3 <- conv4_3
I0729 15:45:29.412425 23285 net.cpp:386] relu4_3 -> conv4_3 (in-place)
I0729 15:45:29.412755 23285 net.cpp:141] Setting up relu4_3
I0729 15:45:29.412770 23285 net.cpp:148] Top shape: 45 512 28 28 (18063360)
I0729 15:45:29.412773 23285 net.cpp:156] Memory required for data: 5048709300
I0729 15:45:29.412777 23285 layer_factory.hpp:77] Creating layer pool4
I0729 15:45:29.412786 23285 net.cpp:91] Creating Layer pool4
I0729 15:45:29.412791 23285 net.cpp:425] pool4 <- conv4_3
I0729 15:45:29.412797 23285 net.cpp:399] pool4 -> pool4
I0729 15:45:29.412852 23285 net.cpp:141] Setting up pool4
I0729 15:45:29.412859 23285 net.cpp:148] Top shape: 45 512 14 14 (4515840)
I0729 15:45:29.412863 23285 net.cpp:156] Memory required for data: 5066772660
I0729 15:45:29.412866 23285 layer_factory.hpp:77] Creating layer conv5_1
I0729 15:45:29.412905 23285 net.cpp:91] Creating Layer conv5_1
I0729 15:45:29.412910 23285 net.cpp:425] conv5_1 <- pool4
I0729 15:45:29.412917 23285 net.cpp:399] conv5_1 -> conv5_1
I0729 15:45:29.436818 23285 net.cpp:141] Setting up conv5_1
I0729 15:45:29.436847 23285 net.cpp:148] Top shape: 45 512 14 14 (4515840)
I0729 15:45:29.436852 23285 net.cpp:156] Memory required for data: 5084836020
I0729 15:45:29.436870 23285 layer_factory.hpp:77] Creating layer relu5_1
I0729 15:45:29.436902 23285 net.cpp:91] Creating Layer relu5_1
I0729 15:45:29.436913 23285 net.cpp:425] relu5_1 <- conv5_1
I0729 15:45:29.436921 23285 net.cpp:386] relu5_1 -> conv5_1 (in-place)
I0729 15:45:29.437245 23285 net.cpp:141] Setting up relu5_1
I0729 15:45:29.437260 23285 net.cpp:148] Top shape: 45 512 14 14 (4515840)
I0729 15:45:29.437264 23285 net.cpp:156] Memory required for data: 5102899380
I0729 15:45:29.437268 23285 layer_factory.hpp:77] Creating layer conv5_2
I0729 15:45:29.437280 23285 net.cpp:91] Creating Layer conv5_2
I0729 15:45:29.437284 23285 net.cpp:425] conv5_2 <- conv5_1
I0729 15:45:29.437292 23285 net.cpp:399] conv5_2 -> conv5_2
I0729 15:45:29.461284 23285 net.cpp:141] Setting up conv5_2
I0729 15:45:29.461310 23285 net.cpp:148] Top shape: 45 512 14 14 (4515840)
I0729 15:45:29.461314 23285 net.cpp:156] Memory required for data: 5120962740
I0729 15:45:29.461323 23285 layer_factory.hpp:77] Creating layer relu5_2
I0729 15:45:29.461331 23285 net.cpp:91] Creating Layer relu5_2
I0729 15:45:29.461336 23285 net.cpp:425] relu5_2 <- conv5_2
I0729 15:45:29.461343 23285 net.cpp:386] relu5_2 -> conv5_2 (in-place)
I0729 15:45:29.461529 23285 net.cpp:141] Setting up relu5_2
I0729 15:45:29.461539 23285 net.cpp:148] Top shape: 45 512 14 14 (4515840)
I0729 15:45:29.461544 23285 net.cpp:156] Memory required for data: 5139026100
I0729 15:45:29.461575 23285 layer_factory.hpp:77] Creating layer conv5_3
I0729 15:45:29.461601 23285 net.cpp:91] Creating Layer conv5_3
I0729 15:45:29.461606 23285 net.cpp:425] conv5_3 <- conv5_2
I0729 15:45:29.461614 23285 net.cpp:399] conv5_3 -> conv5_3
I0729 15:45:29.485653 23285 net.cpp:141] Setting up conv5_3
I0729 15:45:29.485677 23285 net.cpp:148] Top shape: 45 512 14 14 (4515840)
I0729 15:45:29.485682 23285 net.cpp:156] Memory required for data: 5157089460
I0729 15:45:29.485692 23285 layer_factory.hpp:77] Creating layer relu5_3
I0729 15:45:29.485699 23285 net.cpp:91] Creating Layer relu5_3
I0729 15:45:29.485703 23285 net.cpp:425] relu5_3 <- conv5_3
I0729 15:45:29.485710 23285 net.cpp:386] relu5_3 -> conv5_3 (in-place)
I0729 15:45:29.486032 23285 net.cpp:141] Setting up relu5_3
I0729 15:45:29.486045 23285 net.cpp:148] Top shape: 45 512 14 14 (4515840)
I0729 15:45:29.486049 23285 net.cpp:156] Memory required for data: 5175152820
I0729 15:45:29.486054 23285 layer_factory.hpp:77] Creating layer pool5
I0729 15:45:29.486063 23285 net.cpp:91] Creating Layer pool5
I0729 15:45:29.486066 23285 net.cpp:425] pool5 <- conv5_3
I0729 15:45:29.486073 23285 net.cpp:399] pool5 -> pool5
I0729 15:45:29.486130 23285 net.cpp:141] Setting up pool5
I0729 15:45:29.486140 23285 net.cpp:148] Top shape: 45 512 7 7 (1128960)
I0729 15:45:29.486142 23285 net.cpp:156] Memory required for data: 5179668660
I0729 15:45:29.486145 23285 layer_factory.hpp:77] Creating layer fc6
I0729 15:45:29.486232 23285 net.cpp:91] Creating Layer fc6
I0729 15:45:29.486240 23285 net.cpp:425] fc6 <- pool5
I0729 15:45:29.486249 23285 net.cpp:399] fc6 -> fc6
I0729 15:45:30.338232 23285 net.cpp:141] Setting up fc6
I0729 15:45:30.338291 23285 net.cpp:148] Top shape: 45 4096 (184320)
I0729 15:45:30.338294 23285 net.cpp:156] Memory required for data: 5180405940
I0729 15:45:30.338327 23285 layer_factory.hpp:77] Creating layer relu6
I0729 15:45:30.338366 23285 net.cpp:91] Creating Layer relu6
I0729 15:45:30.338380 23285 net.cpp:425] relu6 <- fc6
I0729 15:45:30.338395 23285 net.cpp:386] relu6 -> fc6 (in-place)
I0729 15:45:30.338701 23285 net.cpp:141] Setting up relu6
I0729 15:45:30.338711 23285 net.cpp:148] Top shape: 45 4096 (184320)
I0729 15:45:30.338726 23285 net.cpp:156] Memory required for data: 5181143220
I0729 15:45:30.338729 23285 layer_factory.hpp:77] Creating layer drop6
I0729 15:45:30.338748 23285 net.cpp:91] Creating Layer drop6
I0729 15:45:30.338752 23285 net.cpp:425] drop6 <- fc6
I0729 15:45:30.338757 23285 net.cpp:386] drop6 -> fc6 (in-place)
I0729 15:45:30.338835 23285 net.cpp:141] Setting up drop6
I0729 15:45:30.338843 23285 net.cpp:148] Top shape: 45 4096 (184320)
I0729 15:45:30.338846 23285 net.cpp:156] Memory required for data: 5181880500
I0729 15:45:30.338850 23285 layer_factory.hpp:77] Creating layer fc7
I0729 15:45:30.338877 23285 net.cpp:91] Creating Layer fc7
I0729 15:45:30.338881 23285 net.cpp:425] fc7 <- fc6
I0729 15:45:30.338887 23285 net.cpp:399] fc7 -> fc7
I0729 15:45:30.466575 23285 net.cpp:141] Setting up fc7
I0729 15:45:30.466634 23285 net.cpp:148] Top shape: 45 4096 (184320)
I0729 15:45:30.466640 23285 net.cpp:156] Memory required for data: 5182617780
I0729 15:45:30.466655 23285 layer_factory.hpp:77] Creating layer relu7
I0729 15:45:30.466668 23285 net.cpp:91] Creating Layer relu7
I0729 15:45:30.466675 23285 net.cpp:425] relu7 <- fc7
I0729 15:45:30.466684 23285 net.cpp:386] relu7 -> fc7 (in-place)
I0729 15:45:30.467190 23285 net.cpp:141] Setting up relu7
I0729 15:45:30.467200 23285 net.cpp:148] Top shape: 45 4096 (184320)
I0729 15:45:30.467216 23285 net.cpp:156] Memory required for data: 5183355060
I0729 15:45:30.467219 23285 layer_factory.hpp:77] Creating layer drop7
I0729 15:45:30.467228 23285 net.cpp:91] Creating Layer drop7
I0729 15:45:30.467231 23285 net.cpp:425] drop7 <- fc7
I0729 15:45:30.467236 23285 net.cpp:386] drop7 -> fc7 (in-place)
I0729 15:45:30.467267 23285 net.cpp:141] Setting up drop7
I0729 15:45:30.467273 23285 net.cpp:148] Top shape: 45 4096 (184320)
I0729 15:45:30.467288 23285 net.cpp:156] Memory required for data: 5184092340
I0729 15:45:30.467290 23285 layer_factory.hpp:77] Creating layer fc8_m
I0729 15:45:30.467300 23285 net.cpp:91] Creating Layer fc8_m
I0729 15:45:30.467303 23285 net.cpp:425] fc8_m <- fc7
I0729 15:45:30.467309 23285 net.cpp:399] fc8_m -> fc8_m
I0729 15:45:30.467440 23285 net.cpp:141] Setting up fc8_m
I0729 15:45:30.467447 23285 net.cpp:148] Top shape: 45 1 (45)
I0729 15:45:30.467452 23285 net.cpp:156] Memory required for data: 5184092520
I0729 15:45:30.467456 23285 layer_factory.hpp:77] Creating layer accuracy
I0729 15:45:30.469182 23285 net.cpp:91] Creating Layer accuracy
I0729 15:45:30.469192 23285 net.cpp:425] accuracy <- fc8_m
I0729 15:45:30.469208 23285 net.cpp:425] accuracy <- label
I0729 15:45:30.469215 23285 net.cpp:399] accuracy -> loss
I0729 15:45:30.469635 23285 net.cpp:141] Setting up accuracy
I0729 15:45:30.469658 23285 net.cpp:148] Top shape: 1 (1)
I0729 15:45:30.469662 23285 net.cpp:151]     with loss weight 1
I0729 15:45:30.469696 23285 net.cpp:156] Memory required for data: 5184092524
I0729 15:45:30.469700 23285 net.cpp:217] accuracy needs backward computation.
I0729 15:45:30.469704 23285 net.cpp:217] fc8_m needs backward computation.
I0729 15:45:30.469707 23285 net.cpp:217] drop7 needs backward computation.
I0729 15:45:30.469710 23285 net.cpp:217] relu7 needs backward computation.
…
